…
        },
        "outputId": "ae166220-bdcb-4a18-b68f-1679dc024852"
      },
      "source": [
        "learn.summary()"
      ],
      "execution_count": 18,
      "outputs": [
        {
          "output_type": "execute_result",
          "data": {
            "text/plain": [
              "Sequential\n",
              "======================================================================\n",
              "Layer (type)         Output Shape         Param #    Trainable \n",
              "======================================================================\n",
              "Conv2d               [8, 14, 14]          80         True      \n",
              "______________________________________________________________________\n",
              "BatchNorm2d          [8, 14, 14]          16         True      \n",
              "______________________________________________________________________\n",
              "ReLU                 [8, 14, 14]          0          False     \n",
              "______________________________________________________________________\n",
              "Conv2d               [16, 7, 7]           1,168      True      \n",
              "______________________________________________________________________\n",
              "BatchNorm2d          [16, 7, 7]           32         True      \n",
              "______________________________________________________________________\n",
              "ReLU                 [16, 7, 7]           0          False     \n",
              "______________________________________________________________________\n",
              "Conv2d               [32, 4, 4]           4,640      True      \n",
              "______________________________________________________________________\n",
              "BatchNorm2d          [32, 4, 4]           64         True      \n",
              "______________________________________________________________________\n",
              "ReLU                 [32, 4, 4]           0          False     \n",
              "______________________________________________________________________\n",
              "Conv2d               [16, 2, 2]           4,624      True      \n",
              "______________________________________________________________________\n",
              "BatchNorm2d          [16, 2, 2]           32         True      \n",
              "______________________________________________________________________\n",
              "ReLU                 [16, 2, 2]           0          False     \n",
              "______________________________________________________________________\n",
              "Conv2d               [10, 1, 1]           1,450      True      \n",
              "______________________________________________________________________\n",
              "BatchNorm2d          [10, 1, 1]           20         True      \n",
              "______________________________________________________________________\n",
              "Flatten              [10]                 0          False     \n",
              "______________________________________________________________________\n",
              "\n",
              "Total params: 12,126\n",
              "Total trainable params: 12,126\n",
              "Total non-trainable params: 0\n",
…
        },
        "outputId": "e131b39b-0f31-4789-fad6-536a21e25d24"
      },
      "source": [
        "learn.summary()"
      ],
      "execution_count": 33,
      "outputs": [
        {
          "output_type": "execute_result",
          "data": {
            "text/plain": [
              "Sequential\n",
              "======================================================================\n",
              "Layer (type)         Output Shape         Param #    Trainable \n",
              "======================================================================\n",
              "Conv2d               [8, 14, 14]          72         True      \n",
              "______________________________________________________________________\n",
              "ReLU                 [8, 14, 14]          0          False     \n",
              "______________________________________________________________________\n",
              "BatchNorm2d          [8, 14, 14]          16         True      \n",
              "______________________________________________________________________\n",
              "Conv2d               [8, 14, 14]          576        True      \n",
              "______________________________________________________________________\n",
              "ReLU                 [8, 14, 14]          0          False     \n",
              "______________________________________________________________________\n",
              "BatchNorm2d          [8, 14, 14]          16         True      \n",
              "______________________________________________________________________\n",
              "Conv2d               [8, 14, 14]          576        True      \n",
              "______________________________________________________________________\n",
              "ReLU                 [8, 14, 14]          0          False     \n",
              "______________________________________________________________________\n",
              "BatchNorm2d          [8, 14, 14]          16         True      \n",
              "______________________________________________________________________\n",
              "Conv2d               [16, 7, 7]           1,152      True      \n",
              "______________________________________________________________________\n",
              "ReLU                 [16, 7, 7]           0          False     \n",
              "______________________________________________________________________\n",
              "BatchNorm2d          [16, 7, 7]           32         True      \n",
              "______________________________________________________________________\n",
              "Conv2d               [16, 7, 7]           2,304      True      \n",
              "______________________________________________________________________\n",
              "ReLU                 [16, 7, 7]           0          False     \n",
              "______________________________________________________________________\n",
              "BatchNorm2d          [16, 7, 7]           32         True      \n",
              "______________________________________________________________________\n",
              "Conv2d               [16, 7, 7]           2,304      True      \n",
              "______________________________________________________________________\n",
              "ReLU                 [16, 7, 7]           0          False     \n",
              "______________________________________________________________________\n",
              "BatchNorm2d          [16, 7, 7]           32         True      \n",
              "______________________________________________________________________\n",
              "Conv2d               [32, 7, 7]           4,608      True      \n",
              "______________________________________________________________________\n",
              "ReLU                 [32, 7, 7]           0          False     \n",
              "______________________________________________________________________\n",
              "BatchNorm2d          [32, 7, 7]           64         True      \n",
              "______________________________________________________________________\n",
              "Conv2d               [32, 7, 7]           9,216      True      \n",
              "______________________________________________________________________\n",
              "ReLU                 [32, 7, 7]           0          False     \n",
              "______________________________________________________________________\n",
              "BatchNorm2d          [32, 7, 7]           64         True      \n",
              "______________________________________________________________________\n",
              "Conv2d               [32, 7, 7]           9,216      True      \n",
              "______________________________________________________________________\n",
              "ReLU                 [32, 7, 7]           0          False     \n",
              "______________________________________________________________________\n",
              "BatchNorm2d          [32, 7, 7]           64         True      \n",
              "______________________________________________________________________\n",
              "Conv2d               [16, 7, 7]           4,608      True      \n",
              "______________________________________________________________________\n",
              "ReLU                 [16, 7, 7]           0          False     \n",
              "______________________________________________________________________\n",
              "BatchNorm2d          [16, 7, 7]           32         True      \n",
              "______________________________________________________________________\n",
              "Conv2d               [16, 7, 7]           2,304      True      \n",
              "______________________________________________________________________\n",
              "ReLU                 [16, 7, 7]           0          False     \n",
              "______________________________________________________________________\n",
              "BatchNorm2d          [16, 7, 7]           32         True      \n",
              "______________________________________________________________________\n",
              "Conv2d               [16, 7, 7]           2,304      True      \n",
              "______________________________________________________________________\n",
              "ReLU                 [16, 7, 7]           0          False     \n",
              "______________________________________________________________________\n",
              "BatchNorm2d          [16, 7, 7]           32         True      \n",
              "______________________________________________________________________\n",
              "Conv2d               [10, 7, 7]           1,440      True      \n",
              "______________________________________________________________________\n",
              "ReLU                 [10, 7, 7]           0          False     \n",
              "______________________________________________________________________\n",
              "BatchNorm2d          [10, 7, 7]           20         True      \n",
              "______________________________________________________________________\n",
              "Flatten              [490]                0          False     \n",
              "______________________________________________________________________\n",
              "\n",
              "Total params: 41,132\n",
              "Total trainable params: 41,132\n",
              "Total non-trainable params: 0\n",
…
